…
2个，迁移网络只训练133,898个参数，14,714,688个参数是冻结参数。 为了比较不同输入尺寸对模型性能的影响，本文设计了基于vgg16大尺寸玉米发育期迁移模型，即将模型的输入由原始尺寸224 × 224 × 3调整为与图片实际尺寸相匹配的2240 × 2240 × 3，其架构如表3基于vgg16大尺寸迁移的玉米发育期识别网络所示，与原始尺寸网络比较，大尺寸网络通过增大输入层尺寸，改变了瓶颈层的输出尺寸，训练参数总量没有变化。 Table 1 name type Input size Conv block1 2Conv + pool 224 × 224 × 3 Conv block2 2Conv + pool 112 × 112 × 128 Conv block3 3Conv + pool 56 × 56 × 256 Conv block4 3Conv + pool 28 × 28 × 512 Conv block5 3Conv + pool 14 × 14 × 512 Flatten Flatten 7 × 7 × 512 linear linear 1 × 1 × 4096 softmax softmax 1 × 1 × 1000 表1. Vgg16基础网络模型 Table 2 Layer (type) Output Shape Param vgg16 (Model) (None, 7, 7, 512) 14714688 global_average_pooling2d (None, 512) 0 dense_1 (Dense) (None, 256) 131328 dense_2 (Dense) (None, 10) 2570 Total params: 14,848,586 Trainable params: 133,898 Non-trainable params: 14,714,688 表2. 基于vgg16原始尺寸迁移的玉米发育期识别网络 Table 3 Layer (type) Output Shape Param vgg16 (Model) (None, 70, 70, 512) 14714688 global_average_pooling2d (None, 512) 0 dense_1 (Dense) (None, 256) 131328 dense_2 (Dense) (None, 10) 2570 Total params: 14,848,586 Trainable params: 133,898 Non-trainable params: 14,714,688 表3. 基于vgg16大尺寸迁移的玉米发育期识别网络 为了更好的比较各种模型性能，本文还研究了基于inception V3迁移网络，同时搭建了基于inception V3原始尺寸迁移、inception V3大尺寸迁移的玉米发育期识别网络。表4、表5、表6分别展示了inception V3基础网络模型、基于inception V3原始尺寸迁移的玉米发育期识别网络、基于inception V3大尺寸迁移的玉米发育期识别网络。inception V3基础网络模型主体由两个Conv block模块和3个Inception Block模块组成，实现了输入尺寸299 × 299 × 3到1 × 1 × 1000的映射。本文基于inc
…
设计了原始尺度和大尺寸两种输入网络模型，两种模型瓶颈层输出分别为8 × 8 × 2048和92 × 92 × 2048，总参数都是23,911,210个，训练参数都是2,108,426个，冻结参数都是21,802,784个。 Table 4 name type Input size Conv block1 conv 299 × 299 × 3 conv 149 × 149 × 32 Conv padded 147 × 147 × 32 pool 147 × 147 × 64 Conv block2 conv 73 × 73 × 64 conv 71 × 71 × 80 conv 35 × 35 × 192 Inception Block 1 3*Inception 35 × 35 × 288 Inception Block 2 5*Inception 17 × 17 × 768 Inception Block 3 2*Inception 8 × 8 × 1280 maxpool pool 8 × 8 × 2048 FC linear 1 × 1 × 2048 softmax softmax 1 × 1 × 1000 表4. Inception V3基础网络模型 Table 5 Layer (type) Output Shape Param inception_v3 (Model) (None, 8, 8, 2048) 21802784 global_average_pooling2d (None,2048) 0 dense_1 (Dense) (None, 1024) 2098176 dense_2 (Dense) (None, 10) 10250 Total params: 23,911,210 Trainable params: 2,108,426 Non-trainable params: 21,802,784 表5. 基于inception V3原始尺寸迁移的玉米发育期识别网络 Table 6 Layer (type) Output Shape Param inception_v3 (Model) (None, 92,92, 2048) 21802784 global_average_pooling2d (None,2048) 0 dense_1 (Dense) (None, 1024) 2098176 dense_2 (Dense) (None, 10) 10250 Total params: 23,911,210 Trainable params: 2,108,426 Non-trainable params: 21,802,784 表6. 基于inception V3大尺寸迁移的玉米发育期识别网络"
"本文的训练集和测试集均来源于内蒙古突泉实验站的作物生长自动监测系统。通过安装在农业站上的摄像机获得特定区域的玉米特写镜头，设定每日10:00、12:00、14:00、16:00四个时间点进行自动拍摄玉米生长图像，图像分辨率最小3648 × 2736，最大4490 × 3000。数据库中累积了2019年3台不同型号设备2941张图像，涵盖了玉米从出苗到成熟的九个发育期不同场景的玉米图像，详细情况如表7玉米数据集表所示。 由于样本各个类型样本不均衡，本文采用上采样和下采样相结合的手段，即重复复制样本数量少的样本，抽样帅选样本数据量多的样本，保证各个类型
…
